==> Creating result directory ...
==> Loading test settings ...
==> Deciding torch device ...
==> torch device:  cuda
==> Seeding everything ...
==> Building dynamical system ...
==> Building dynamics neural network ...
==========================================================================================
Layer (type:depth-idx)                   Output Shape              Param #
==========================================================================================
FullyConnectedNetwork                    [1, 2]                    --
├─Sequential: 1-1                        [1, 2]                    --
│    └─LinearLayer: 2-1                  [1, 16]                   80
│    └─LinearLayer: 2-2                  [1, 16]                   272
│    └─LinearLayer: 2-3                  [1, 2]                    34
├─Sequential: 1-2                        [1, 2]                    (recursive)
│    └─LinearLayer: 2-4                  [1, 16]                   (recursive)
│    └─LinearLayer: 2-5                  [1, 16]                   (recursive)
│    └─LinearLayer: 2-6                  [1, 2]                    (recursive)
==========================================================================================
…
==> Plot actuation errors (after training)
> (x, theta): mean = 0.0186, max = 0.0273
> (x, dx): mean = 0.0273, max = 0.0273
> (x, dtheta): mean = 0.0273, max = 0.0273
> (theta, dx): mean = 0.0186, max = 0.0273
> (theta, dtheta): mean = 0.0186, max = 0.0273
> (dx, dtheta): mean = 0.0273, max = 0.0273
==> Building Lyapunov neural network ...
==========================================================================================
Layer (type:depth-idx)                   Output Shape              Param #
==========================================================================================
LyapunovNetwork                          [1, 1]                    --
├─Sequential: 1-1                        [1, 64]                   --
│    └─LinearLayer: 2-1                  [1, 64]                   256
│    └─LinearLayer: 2-2                  [1, 64]                   4,096
│    └─LinearLayer: 2-3                  [1, 64]                   4,096
==========================================================================================
Total params: 8,448
Trainable params: 8,448
Non-trainable params: 0
Total mult-adds (M): 0.01
==========================================================================================
Input size (MB): 0.00
Forward/backward pass size (MB): 0.00
Params size (MB): 0.03
Estimated Total Size (MB): 0.04
==========================================================================================
==> Building controller neural network ...
==========================================================================================
Layer (type:depth-idx)                   Output Shape              Param #
==========================================================================================
FullyConnectedNetwork                    [1, 1]                    --
├─Sequential: 1-1                        [1, 1]                    --
│    └─LinearLayer: 2-1                  [1, 16]                   64
│    └─LinearLayer: 2-2                  [1, 16]                   256
│    └─LinearLayer: 2-3                  [1, 1]                    16
==========================================================================================
Total params: 336
Trainable params: 336
Non-trainable params: 0
Total mult-adds (M): 0.00
==========================================================================================
Input size (MB): 0.00
Forward/backward pass size (MB): 0.00
Params size (MB): 0.00
Estimated Total Size (MB): 0.00
==========================================================================================
…
