==> Creating result directory ...
==> Loading test settings ...
==> Deciding torch device ...
==> torch device:  cuda
==> Seeding everything ...
==> Building dynamical system ...
==> Building dynamics neural network ...
==========================================================================================
Layer (type:depth-idx)                   Output Shape              Param #
==========================================================================================
FullyConnectedNetwork                    [1, 3]                    --
├─Sequential: 1-1                        [1, 3]                    --
│    └─LinearLayer: 2-1                  [1, 16]                   64
│    └─LinearLayer: 2-2                  [1, 16]                   272
│    └─LinearLayer: 2-3                  [1, 3]                    51
├─Sequential: 1-2                        [1, 3]                    (recursive)
│    └─LinearLayer: 2-4                  [1, 16]                   (recursive)
│    └─LinearLayer: 2-5                  [1, 16]                   (recursive)
│    └─LinearLayer: 2-6                  [1, 3]                    (recursive)
==========================================================================================
…
> (x1, x2): mean = 0.0560, max = 0.1998
> (x1, x3): mean = 0.0466, max = 0.1833
> (x2, x3): mean = 0.0627, max = 0.1903
==> Plot actuation errors (after training)
> (x1, x2): mean = 0.0457, max = 0.0457
> (x1, x3): mean = 0.0457, max = 0.0457
> (x2, x3): mean = 0.0457, max = 0.0457
==> Building Lyapunov neural network ...
==========================================================================================
Layer (type:depth-idx)                   Output Shape              Param #
==========================================================================================
LyapunovNetwork                          [1, 1]                    --
├─Sequential: 1-1                        [1, 64]                   --
│    └─LinearLayer: 2-1                  [1, 64]                   192
│    └─LinearLayer: 2-2                  [1, 64]                   4,096
│    └─LinearLayer: 2-3                  [1, 64]                   4,096
==========================================================================================
Total params: 8,384
Trainable params: 8,384
Non-trainable params: 0
Total mult-adds (M): 0.01
==========================================================================================
Input size (MB): 0.00
Forward/backward pass size (MB): 0.00
Params size (MB): 0.03
Estimated Total Size (MB): 0.04
==========================================================================================
==> Building controller neural network ...
==========================================================================================
Layer (type:depth-idx)                   Output Shape              Param #
==========================================================================================
FullyConnectedNetwork                    [1, 1]                    --
├─Sequential: 1-1                        [1, 1]                    --
│    └─LinearLayer: 2-1                  [1, 16]                   48
│    └─LinearLayer: 2-2                  [1, 16]                   256
│    └─LinearLayer: 2-3                  [1, 1]                    16
==========================================================================================
Total params: 320
Trainable params: 320
Non-trainable params: 0
Total mult-adds (M): 0.00
==========================================================================================
Input size (MB): 0.00
Forward/backward pass size (MB): 0.00
Params size (MB): 0.00
Estimated Total Size (MB): 0.00
==========================================================================================
…
