==> Creating result directory ...
==> Loading test settings ...
==> Deciding torch device ...
==> torch device:  cuda
==> Seeding everything ...
==> Building dynamical system ...
==> Building dynamics neural network ...
==========================================================================================
Layer (type:depth-idx)                   Output Shape              Param #
==========================================================================================
FullyConnectedNetwork                    [1, 3]                    --
├─Sequential: 1-1                        [1, 3]                    --
│    └─LinearLayer: 2-1                  [1, 16]                   112
│    └─LinearLayer: 2-2                  [1, 16]                   272
│    └─LinearLayer: 2-3                  [1, 3]                    51
├─Sequential: 1-2                        [1, 3]                    (recursive)
│    └─LinearLayer: 2-4                  [1, 16]                   (recursive)
│    └─LinearLayer: 2-5                  [1, 16]                   (recursive)
│    └─LinearLayer: 2-6                  [1, 3]                    (recursive)
==========================================================================================
…
> (theta, dx): mean = 0.0275, max = 0.0472
> (theta, dy): mean = 0.0275, max = 0.0466
> (theta, dtheta): mean = 0.0288, max = 0.0618
> (dx, dy): mean = 0.0181, max = 0.0206
> (dx, dtheta): mean = 0.0209, max = 0.0289
> (dy, dtheta): mean = 0.0208, max = 0.0263
==> Building Lyapunov neural network ...
==========================================================================================
Layer (type:depth-idx)                   Output Shape              Param #
==========================================================================================
LyapunovNetwork                          [1, 1]                    --
├─Sequential: 1-1                        [1, 64]                   --
│    └─LinearLayer: 2-1                  [1, 64]                   384
│    └─LinearLayer: 2-2                  [1, 64]                   4,096
│    └─LinearLayer: 2-3                  [1, 64]                   4,096
==========================================================================================
Total params: 8,576
Trainable params: 8,576
Non-trainable params: 0
Total mult-adds (M): 0.01
==========================================================================================
Input size (MB): 0.00
Forward/backward pass size (MB): 0.00
Params size (MB): 0.03
Estimated Total Size (MB): 0.04
==========================================================================================
==> Building controller neural network ...
==========================================================================================
Layer (type:depth-idx)                   Output Shape              Param #
==========================================================================================
FullyConnectedNetwork                    [1, 2]                    --
├─Sequential: 1-1                        [1, 2]                    --
│    └─LinearLayer: 2-1                  [1, 16]                   96
│    └─LinearLayer: 2-2                  [1, 16]                   256
│    └─LinearLayer: 2-3                  [1, 2]                    32
==========================================================================================
Total params: 384
Trainable params: 384
Non-trainable params: 0
Total mult-adds (M): 0.00
==========================================================================================
Input size (MB): 0.00
Forward/backward pass size (MB): 0.00
Params size (MB): 0.00
Estimated Total Size (MB): 0.00
==========================================================================================
…
