==> Creating result directory ...
==> Loading test settings ...
==> Deciding torch device ...
==> torch device:  cuda
==> Seeding everything ...
==> Building dynamical system ...
==> Building dynamics neural network ...
==========================================================================================
Layer (type:depth-idx)                   Output Shape              Param #
==========================================================================================
FullyConnectedNetwork                    [1, 1]                    --
├─Sequential: 1-1                        [1, 1]                    --
│    └─LinearLayer: 2-1                  [1, 16]                   48
│    └─LinearLayer: 2-2                  [1, 16]                   272
│    └─LinearLayer: 2-3                  [1, 1]                    17
├─Sequential: 1-2                        [1, 1]                    (recursive)
│    └─LinearLayer: 2-4                  [1, 16]                   (recursive)
│    └─LinearLayer: 2-5                  [1, 16]                   (recursive)
│    └─LinearLayer: 2-6                  [1, 1]                    (recursive)
==========================================================================================
…
Epoch: 196 | Train Loss: 5.4345E-01 | Drift GN: 1.9330E-01 | Actu. GN: 4.1468E-02 | Time: 517ms
Total time: 1m44s
==> Plot drift errors (after training)
> (theta, dtheta): mean = 1.5703, max = 3.7040
==> Plot actuation errors (after training)
> (theta, dtheta): mean = 0.4231, max = 0.4231
==> Building Lyapunov neural network ...
==========================================================================================
Layer (type:depth-idx)                   Output Shape              Param #
==========================================================================================
LyapunovNetwork                          [1, 1]                    --
├─Sequential: 1-1                        [1, 64]                   --
│    └─LinearLayer: 2-1                  [1, 64]                   128
│    └─LinearLayer: 2-2                  [1, 64]                   4,096
│    └─LinearLayer: 2-3                  [1, 64]                   4,096
==========================================================================================
Total params: 8,320
Trainable params: 8,320
Non-trainable params: 0
Total mult-adds (M): 0.01
==========================================================================================
Input size (MB): 0.00
Forward/backward pass size (MB): 0.00
Params size (MB): 0.03
Estimated Total Size (MB): 0.03
==========================================================================================
==> Building controller neural network ...
==========================================================================================
Layer (type:depth-idx)                   Output Shape              Param #
==========================================================================================
FullyConnectedNetwork                    [1, 1]                    --
├─Sequential: 1-1                        [1, 1]                    --
│    └─LinearLayer: 2-1                  [1, 16]                   32
│    └─LinearLayer: 2-2                  [1, 16]                   256
│    └─LinearLayer: 2-3                  [1, 1]                    16
==========================================================================================
Total params: 304
Trainable params: 304
Non-trainable params: 0
Total mult-adds (M): 0.00
==========================================================================================
Input size (MB): 0.00
Forward/backward pass size (MB): 0.00
Params size (MB): 0.00
Estimated Total Size (MB): 0.00
==========================================================================================
…
